…
">            </td>        </tr>        <tr>            <td width="5%" valign="top">                <font color="red"><label id="label_out_5">Out[5]:</label></font>            </td>            <td width="95%" valign="top">                <div style="background-color:white;padding:0px 10px 0px 10px;">                    <pre id="cell_out_5" style="width:100%;overflow:auto;">input x: (188, 174)
input y: (188, 1)
outout train_x: (144, 30, 174)
outout train_y: (144, 15)
outout test_x: (1, 30, 174)
Model: "sequential_1"
_________________________________________________________________
Layer (type)                 Output Shape              Param #   
=================================================================
conv1d_1 (Conv1D)            (None, 30, 128)           89216     
_________________________________________________________________
activation_1 (Activation)    (None, 30, 128)           0         
_________________________________________________________________
max_pooling1d_1 (MaxPooling1 (None, 15, 128)           0         
_________________________________________________________________
conv1d_2 (Conv1D)            (None, 15, 128)           65664     
_________________________________________________________________
activation_2 (Activation)    (None, 15, 128)           0         
_________________________________________________________________
max_pooling1d_2 (MaxPooling1 (None, 7, 128)            0         
_________________________________________________________________
conv1d_3 (Conv1D)            (None, 7, 64)             32832     
_________________________________________________________________
activation_3 (Activation)    (None, 7, 64)             0         
_________________________________________________________________
max_pooling1d_3 (MaxPooling1 (None, 3, 64)             0         
_________________________________________________________________
flatten_1 (Flatten)          (None, 192)               0         
_________________________________________________________________
dense_1 (Dense)              (None, 1024)              197632    
_________________________________________________________________
dense_2 (Dense)              (None, 15)                15375     
_________________________________________________________________
activation_4 (Activation)    (None, 15)                0         
=================================================================
Total params: 400,719
Trainable params: 400,719
Non-trainable params: 0
_________________________________________________________________1th Trial

learning:200/200[==================================================]{'loss': 486005.88194444444, 'mae': 424.08557, 'r2': 0.9944998}
<img src="data:image/png;base64, …">
…
">            </td>        </tr>        <tr>            <td width="5%" valign="top">                <font color="red"><label id="label_out_7">Out[7]:</label></font>            </td>            <td width="95%" valign="top">                <div style="background-color:white;padding:0px 10px 0px 10px;">                    <pre id="cell_out_7" style="width:100%;overflow:auto;">input x: (188, 175)
input y: (188, 1)
outout train_x: (144, 30, 175)
outout train_y: (144, 15)
outout test_x: (1, 30, 175)
Model: "sequential_2"
_________________________________________________________________
Layer (type)                 Output Shape              Param #   
=================================================================
conv1d_4 (Conv1D)            (None, 30, 128)           89728     
_________________________________________________________________
activation_5 (Activation)    (None, 30, 128)           0         
_________________________________________________________________
max_pooling1d_4 (MaxPooling1 (None, 15, 128)           0         
_________________________________________________________________
conv1d_5 (Conv1D)            (None, 15, 128)           65664     
_________________________________________________________________
activation_6 (Activation)    (None, 15, 128)           0         
_________________________________________________________________
max_pooling1d_5 (MaxPooling1 (None, 7, 128)            0         
_________________________________________________________________
conv1d_6 (Conv1D)            (None, 7, 64)             32832     
_________________________________________________________________
activation_7 (Activation)    (None, 7, 64)             0         
_________________________________________________________________
max_pooling1d_6 (MaxPooling1 (None, 3, 64)             0         
_________________________________________________________________
flatten_2 (Flatten)          (None, 192)               0         
_________________________________________________________________
dense_3 (Dense)              (None, 1024)              197632    
_________________________________________________________________
dense_4 (Dense)              (None, 15)                15375     
_________________________________________________________________
activation_8 (Activation)    (None, 15)                0         
=================================================================
Total params: 401,231
Trainable params: 401,231
Non-trainable params: 0
_________________________________________________________________1th Trial

learning:200/200[==================================================]{'loss': 509581.84027777775, 'mae': 431.88284, 'r2': 0.9944827}
<img src="data:image/png;base64, …">
…
compare_with_org_y(org_y=ds_y,comp_y=predit_y)">            </td>        </tr>        <tr>            <td width="5%" valign="top">                <font color="red"><label id="label_out_17">Out[17]:</label></font>            </td>            <td width="95%" valign="top">                <div style="background-color:white;padding:0px 10px 0px 10px;">                    <pre id="cell_out_17" style="width:100%;overflow:auto;">input x: (188, 181)
input y: (188, 1)
outout train_x: (144, 30, 181)
outout train_y: (144, 15)
outout test_x: (1, 30, 181)Model: "sequential_3"
_________________________________________________________________
Layer (type)                 Output Shape              Param #   
=================================================================
conv1d_7 (Conv1D)            (None, 30, 128)           92800     
_________________________________________________________________
activation_9 (Activation)    (None, 30, 128)           0         
_________________________________________________________________
max_pooling1d_7 (MaxPooling1 (None, 15, 128)           0         
_________________________________________________________________
conv1d_8 (Conv1D)            (None, 15, 128)           65664     
_________________________________________________________________
activation_10 (Activation)   (None, 15, 128)           0         
_________________________________________________________________
max_pooling1d_8 (MaxPooling1 (None, 7, 128)            0         
_________________________________________________________________
conv1d_9 (Conv1D)            (None, 7, 64)             32832     
_________________________________________________________________
activation_11 (Activation)   (None, 7, 64)             0         
_________________________________________________________________
max_pooling1d_9 (MaxPooling1 (None, 3, 64)             0         
_________________________________________________________________
flatten_3 (Flatten)          (None, 192)               0         
_________________________________________________________________
dense_5 (Dense)              (None, 1024)              197632    
_________________________________________________________________
dense_6 (Dense)              (None, 15)                15375     
_________________________________________________________________
activation_12 (Activation)   (None, 15)                0         
=================================================================
Total params: 404,303
Trainable params: 404,303
Non-trainable params: 0
_________________________________________________________________
1th Trial

learning:100/100[==================================================]{'loss': 1189329.861111111, 'mae': 618.3657, 'r2': 0.98805684}
<img src="data:image/png;base64, …">
…
">            </td>        </tr>        <tr>            <td width="5%" valign="top">                <font color="red"><label id="label_out_31">Out[31]:</label></font>            </td>            <td width="95%" valign="top">                <div style="background-color:white;padding:0px 10px 0px 10px;">                    <pre id="cell_out_31" style="width:100%;overflow:auto;">input x: (188, 181)
input y: (188, 181)
outout train_x: (168, 20, 181)
outout train_y: (168, 181)
outout test_x: (1, 20, 181)Model: "sequential_7"
_________________________________________________________________
Layer (type)                 Output Shape              Param #   
=================================================================
conv1d_19 (Conv1D)           (None, 20, 128)           92800     
_________________________________________________________________
activation_25 (Activation)   (None, 20, 128)           0         
_________________________________________________________________
max_pooling1d_19 (MaxPooling (None, 10, 128)           0         
_________________________________________________________________
conv1d_20 (Conv1D)           (None, 10, 128)           65664     
_________________________________________________________________
activation_26 (Activation)   (None, 10, 128)           0         
_________________________________________________________________
max_pooling1d_20 (MaxPooling (None, 5, 128)            0         
_________________________________________________________________
conv1d_21 (Conv1D)           (None, 5, 64)             32832     
_________________________________________________________________
activation_27 (Activation)   (None, 5, 64)             0         
_________________________________________________________________
max_pooling1d_21 (MaxPooling (None, 2, 64)             0         
_________________________________________________________________
flatten_7 (Flatten)          (None, 128)               0         
_________________________________________________________________
dense_13 (Dense)             (None, 1024)              132096    
_________________________________________________________________
dense_14 (Dense)             (None, 181)               185525    
_________________________________________________________________
activation_28 (Activation)   (None, 181)               0         
=================================================================
Total params: 508,917
Trainable params: 508,917
Non-trainable params: 0
_________________________________________________________________
1th Trial

learning:100/100[==================================================]{'loss': 33943.123046875, 'mae': 72.680725, 'r2': 0.99629766}
<img src="data:image/png;base64, …">
…
